…
    "X_test = X_test.reshape(X_test.shape[0], 28, 28, 1).astype('float32') / 255\n",
    "Y_train = tf.keras.utils.to_categorical(Y_train)\n",
    "Y_test = tf.keras.utils.to_categorical(Y_test)"
   ]
  },
  {
   "cell_type": "code",
   "execution_count": 4,
   "metadata": {},
   "outputs": [
    {
     "name": "stdout",
     "output_type": "stream",
     "text": [
      "Model: \"sequential\"\n",
      "_________________________________________________________________\n",
      "Layer (type)                 Output Shape              Param #   \n",
      "=================================================================\n",
      "conv2d (Conv2D)              (None, 26, 26, 32)        320       \n",
      "_________________________________________________________________\n",
      "conv2d_1 (Conv2D)            (None, 24, 24, 64)        18496     \n",
      "_________________________________________________________________\n",
      "max_pooling2d (MaxPooling2D) (None, 12, 12, 64)        0         \n",
      "_________________________________________________________________\n",
      "dropout (Dropout)            (None, 12, 12, 64)        0         \n",
      "_________________________________________________________________\n",
      "flatten (Flatten)            (None, 9216)              0         \n",
      "_________________________________________________________________\n",
      "dense (Dense)                (None, 128)               1179776   \n",
      "_________________________________________________________________\n",
      "dropout_1 (Dropout)          (None, 128)               0         \n",
      "_________________________________________________________________\n",
      "dense_1 (Dense)              (None, 10)                1290      \n",
      "=================================================================\n",
      "Total params: 1,199,882\n",
      "Trainable params: 1,199,882\n",
      "Non-trainable params: 0\n",
      "_________________________________________________________________\n"
     ]
    }
   ],
   "source": [
    "# 컨볼루션 신경망 설정\n",
    "model = Sequential([\n",
    "    Conv2D(32, kernel_size=(3, 3), input_shape=(28, 28, 1), activation='relu'),\n",
…
